…
        "model.add(Dense(500)) #500개 층\n",
        "model.add(Activation('relu'))\n",
        "# Softmax\n",
        "model.add(Dense(10))\n",
        "model.add(Activation('softmax')) #출력시 softmax로\n",
        "model.summary()"
      ],
      "execution_count": 9,
      "outputs": [
        {
          "output_type": "stream",
          "text": [
            "_________________________________________________________________\n",
            "Layer (type)                 Output Shape              Param #   \n",
            "=================================================================\n",
            "conv2d_1 (Conv2D)            (None, 28, 28, 20)        520       \n",
            "_________________________________________________________________\n",
            "activation_1 (Activation)    (None, 28, 28, 20)        0         \n",
            "_________________________________________________________________\n",
            "max_pooling2d_1 (MaxPooling2 (None, 14, 14, 20)        0         \n",
            "_________________________________________________________________\n",
            "conv2d_2 (Conv2D)            (None, 14, 14, 50)        25050     \n",
            "_________________________________________________________________\n",
            "activation_2 (Activation)    (None, 14, 14, 50)        0         \n",
            "_________________________________________________________________\n",
            "max_pooling2d_2 (MaxPooling2 (None, 7, 7, 50)          0         \n",
            "_________________________________________________________________\n",
            "flatten_1 (Flatten)          (None, 2450)              0         \n",
            "_________________________________________________________________\n",
            "dense_1 (Dense)              (None, 500)               1225500   \n",
            "_________________________________________________________________\n",
            "activation_3 (Activation)    (None, 500)               0         \n",
            "_________________________________________________________________\n",
            "dense_2 (Dense)              (None, 10)                5010      \n",
            "_________________________________________________________________\n",
            "activation_4 (Activation)    (None, 10)                0         \n",
            "=================================================================\n",
            "Total params: 1,256,080\n",
            "Trainable params: 1,256,080\n",
            "Non-trainable params: 0\n",
            "_________________________________________________________________\n"
          ],
          "name": "stdout"
        }
      ]
    },
    {
      "metadata": {
        "id": "DSAWGDL1AUR_",
…
